uncertainty/HebbNetCertainty[100,100,1]train=dataset3_T=500.pkl (torch, 86523 bytes, 4 tensors)

w1 f4 [100, 100]
000000 e6 2c 4c 3c 9e 5b b7 bd 99 59 40 3e 68 78 84 bd
       0.0124618765 -0.089530215 0.18784179 -0.06468278
000010 3d 80 25 3e 7d 3b cd bc 5c 0a f9 3b 0d b3 f5 3d
       0.161622 -0.02505278 0.007600112 0.11997042
000020 88 05 12 be 39 02 40 3e dc 81 26 3d f7 9d 22 bd
       -0.14259923 0.18750848 0.040651187 -0.03970143
000030 f1 de ee 3d e4 b2 8d bc d6 16 18 3e 61 2b 03 be
       0.116636164 -0.017297216 0.14852461 -0.12809516
000040 c5 91 12 3e 9b fc 7d 3d ee 57 29 3e a2 2f 05 3d
       0.14313419 0.06200848 0.16537449 0.03251613
000050 bc 38 18 be fb df 49 3e a2 3f 2b 3e 10 24 aa 39
       -0.14865392 0.19714348 0.16723493 0.00032451795
000060 71 3c bc bd 0e 94 f2 bd 62 87 36 be ac b3 8a 3d
       -0.09191216 -0.118446454 -0.17825082 0.06772551
000070 b4 2a 1f bd 8d 26 1e bd 3b dd 7b 3e cb 9c 31 3e
       -0.038859084 -0.038610984 0.24596111 0.17344968
000080 68 28 e6 3d 5e 94 4f 3d a9 a8 d1 be 27 34 70 bd
       0.11238176 0.050678603 -0.4094899 -0.058643486
000090 51 e8 25 be cf dc af bd 67 ad b2 bd a4 6e eb bc
       -0.16201903 -0.08587038 -0.0872448 -0.028739281
0000a0 42 19 0b 3e ba 41 2f be ce 73 bc 3d 99 db 03 3e
       0.13583854 -0.17114916 0.092017755 0.12876739
0000b0 fc e9 5b 3e a8 ef d9 bc c8 03 a5 bd 09 8d bb 3c
       0.21475977 -0.026603535 -0.08057362 0.0228944
0000c0 d3 43 95 bd 2c 7d 6c be 93 e6 02 be 58 f5 6c 3d
       -0.07288327 -0.23094624 -0.1278327 0.057851166
0000d0 79 2e 2b be c0 76 2e 3e 53 15 fe bc 42 ec 51 3e
       -0.16716947 0.17037487 -0.031016028 0.20500281
0000e0 e9 a3 dc bd 61 7c 67 bd b6 94 15 3e 2f f0 b4 bc
       -0.10773451 -0.0565151 0.1460751 -0.022087185
0000f0 08 da 50 3d 73 14 b1 3d 97 b1 74 3d 82 5e 20 3e
       0.05098918 0.086464785 0.059739675 0.15661052
000100 0a 72 55 bd b1 be 24 be 80 07 75 3e bc 7c bc be
       -0.05211071 -0.16088368 0.23928642 -0.36813915
000110 d5 8b 95 be 91 39 fa 3d a0 68 93 bd 8d 5f bf bd
       -0.29208246 0.12218011 -0.0719769 -0.09344397
000120 89 c4 fd bd 14 10 0c bd 2b d2 29 3e 01 6b ae bd
       -0.12391002 -0.03419502 0.16584079 -0.08516503
000130 bc dd aa 3e c9 a8 12 be b1 c4 d3 bd 4a 7f c6 3d
       0.33372295 -0.14322199 -0.1034025 0.09692247
000140 42 ed 88 3e 9d 72 84 3e 07 92 96 3d 6f ee b7 bd
       0.26743513 0.25868693 0.07352071 -0.089810245
000150 06 5c 13 3e 0c 2e c7 3b f6 7d 9d bd 15 56 36 be
       0.14390573 0.0060784873 -0.07690041 -0.17806275
000160 2e 47 99 3c ea 6a 47 bc 85 21 02 be 68 a8 c3 3d
       0.018710699 -0.012171486 -0.12708099 0.09553605
000170 09 bf 1f 3e 04 a7 96 3e ce b9 3a bd 4c 75 59 bd
       0.15600218 0.29424298 -0.045587353 -0.05309038
000180 d4 66 d0 3d c6 27 e3 bd fb dc c0 3e 34 88 85 bc
       0.10175863 -0.110915706 0.37668595 -0.016300298
000190 0b 96 01 3e 3a 5d 1b bd e5 3d 71 3e b6 b1 8f bd
       0.12654893 -0.037930705 0.23558767 -0.070163175
0001a0 39 e3 82 3c 7d c8 fa bc bd ff 68 be d1 2c 53 be
       0.015977489 -0.030613178 -0.22753806 -0.20622565
0001b0 95 27 02 be d8 9c 90 bc d8 18 58 3e b1 ef 3e 3e
       -0.12710412 -0.017652914 0.21103227 0.18646123
0001c0 7a 54 82 3e 7f 17 45 bd 0e 2c 09 be 66 ca b4 be
       0.25455076 -0.04811811 -0.13395712 -0.35310668
0001d0 43 d0 35 3e fd ff 17 be c2 0e 94 3d 4b 6f bb bd
       0.17755227 -0.14843746 0.07229377 -0.09152087
0001e0 b4 50 ad bd a4 64 86 be 83 72 f4 3d a0 ad 92 be
       -0.084626585 -0.26248658 0.11935904 -0.2864809
0001f0 11 1c 09 3e e9 79 c7 bd 8b 89 98 bd 26 4f 14 be
       0.13389613 -0.097400494 -0.07448109 -0.14483318
000200 e3 a3 ca 3d 76 65 57 3e aa f6 37 3d 6f 65 3e be
       0.0989454 0.21034798 0.04491297 -0.18593381
000210 59 cd 52 3e 8d 44 1b bd 85 90 34 be 67 66 c3 3e
       0.20586146 -0.037907172 -0.17633255 0.38164064
000220 30 7d e0 bd 0d c2 1e be 28 f9 80 bd c0 f7 97 3c
       -0.109613776 -0.15503712 -0.06297523 0.018550754
000230 97 99 20 be 20 77 87 bd 39 be d8 3d 93 63 66 bc
       -0.1568359 -0.06614518 0.10583157 -0.014061826
000240 5a 41 99 3d ba e0 ab bc 3e 14 77 be ef 5a ab 3c
       0.07483168 -0.020981181 -0.24128816 0.020917384
000250 2b 39 a1 be b9 b3 f5 bd 4c 37 1c bd a6 7a 99 3d
       -0.31488928 -0.1199717 -0.038138673 0.074940965
000260 f9 51 62 be af ec 19 be 97 2e 3c 3d 51 d3 73 3c
       -0.22101583 -0.15031694 0.04594287 0.014881925
000270 f0 a0 1e 3e 77 89 98 bd bb b0 0a bd 97 bb bb 3d
       0.1549108 -0.07448094 -0.03385995 0.09166639
000280 f2 a2 90 bd d2 52 18 bc 6c b0 db be 42 ce 58 bc
       -0.07062329 -0.00929709 -0.42908037 -0.013232769
000290 5b c4 14 3e 72 65 05 bd 18 f1 05 3e 5c 45 98 3e
       0.14528029 -0.03256745 0.13080251 0.29740417
0002a0 eb 83 c8 bd 64 1e 32 3d a3 4a 02 be 85 8d 87 be
       -0.09790786 0.043486014 -0.12723784 -0.26475158
0002b0 bf ba 24 be b3 94 1b be 3d e5 da 3d 54 f2 2d 3e
       -0.16086863 -0.15193443 0.10688255 0.16986972
0002c0 cd 6f f4 3d 3b be 17 3e fe 6a 94 bc 86 34 3c 3e
       0.11935387 0.14818661 -0.018117424 0.18379411
0002d0 88 9a 29 be 1a 6c 04 3c 62 b9 78 bd ab 07 54 3e
       -0.16562855 0.008082414 -0.06072367 0.2070605
0002e0 8f df d1 3b 7b f1 00 3d ac b4 5d bc 7a 32 9c 3e
       0.006404824 0.031480294 -0.013531845 0.3050726
0002f0 f3 28 ae 3e 49 28 2e 3d 7a 88 32 3d 31 e4 d6 bc
       0.34015617 0.042518888 0.043587185 -0.026231857
000300 c2 24 69 bd a6 ad 2c 3e 47 e3 6e 3d 7e fb ff bd
       -0.05691982 0.16863117 0.058322217 -0.1249914
000310 62 78 bf 3d 9f df b4 3d b3 70 1c 3d a7 46 f3 bd
       0.09349133 0.08831715 0.038193416 -0.1187871
000320 4c dc 98 3d fb df 99 bd 4d d5 2d 3c 80 f9 6a 3e
       0.07463893 -0.07513424 0.010609937 0.22946739
000330 66 ae 6a 3e 12 6b 7b be c5 0a 3a be 03 24 1c be
       0.2291809 -0.24552563 -0.18168171 -0.15248112
000340 46 4c 13 bd a8 ea 57 3c d9 7d b4 be b2 1b 8b 3e
       -0.035961412 0.013178505 -0.35252264 0.27169567
000350 37 5e 3b be 0d c8 a0 be be 8c 02 3d f9 47 ea 3c
       -0.18297659 -0.31402627 0.031872503 0.028598772
000360 e0 a7 a0 bd f2 04 4f 3e 0b 4b 35 3e 92 05 07 bc
       -0.078445196 0.2021673 0.17704408 -0.008241074
000370 73 5e 1f 3e 8b d4 3f 3d 5d ca 16 be 5e 6d 32 be
       0.15563373 0.046833556 -0.14725633 -0.17424533
000380 0f 20 ef bd b7 c7 d4 bc 98 81 00 be 41 85 54 be
       -0.116760366 -0.025974138 -0.12549436 -0.20753957
000390 7a e7 ac 3d 6c 68 84 3e 1d 9a 75 be dc 32 89 be
       0.08442588 0.25860918 -0.23984571 -0.26796615
0003a0 08 8b b1 bd aa 81 40 be 10 82 9b bd 0d ca 54 3e
       -0.08669096 -0.18799463 -0.07593167 0.20780201
0003b0 86 70 00 be 80 50 50 3d 50 e3 20 3e b0 0c ad 3d
       -0.12542924 0.05085802 0.15711713 0.084496856
0003c0 ae 8d 57 3d ed 31 fe bc bf 98 a4 bd 8b ae 39 be
       0.05262535 -0.031029666 -0.080369465 -0.18132989
0003d0 b1 7d 1b 3e 63 3a 8d 3e b4 ed 54 be b3 31 58 3e
       0.15184666 0.27583608 -0.20793802 0.21112709
0003e0 9d d8 94 be 54 63 fa 3b c4 1a ae 3d 2d 64 06 3e
       -0.29071513 0.0076412354 0.08501199 0.13124152
0003f0 c2 9c fb 3c 32 41 33 bd 4c 81 f5 3d 96 32 85 3d
       0.030714396 -0.043763347 0.11987552 0.06503789

b1 f4 [100]
000000 0f df 53 3f cc f4 a9 be 8e 01 d2 be 7e f7 d5 be
       0.82762235 -0.33194578 -0.4101681 -0.41790384
000010 e0 b7 bf 3f a7 85 9e 3d 0c f3 cd be 47 3f d8 bf
       1.4977989 0.07740336 -0.40224493 -1.6894311
000020 32 47 ce bf ba aa d4 be a0 fa a0 bf ce e3 8c 3f
       -1.6115477 -0.41536504 -1.2576485 1.100702
000030 45 0e a1 3f bb 13 07 3b 20 72 aa 3f cd 18 39 3f
       1.258248 0.0020611126 1.3316078 0.7230347
000040 90 47 49 3e 74 ca ad 3f 08 63 45 bf ef 8f 6a bf
       0.19656205 1.3577409 -0.77104235 -0.91625875
000050 17 ce 10 3f 6f 50 42 bf c1 e4 c4 bf 82 70 0f 40
       0.5656447 -0.7590398 -1.538231 2.241242
000060 9f 6d 3b 3f 52 5c 9b be 67 53 6e 3e 86 b1 17 c0
       0.73214144 -0.30343872 0.23274003 -2.3702102
000070 2a 38 31 3f c3 13 23 40 d7 f4 28 be 71 39 94 bf
       0.69226325 2.5480812 -0.16499649 -1.158003
000080 64 95 f8 3d 23 b0 f9 bc c2 32 49 be 51 21 a9 bd
       0.12137869 -0.030479496 -0.19648269 -0.08258308
000090 3e ad 68 3f 84 26 1a bf 75 ea 7d 3f 90 b3 f1 be
       0.90889347 -0.6021502 0.9918588 -0.47207308
0000a0 2f 4b 09 40 c8 82 5e be cf af e5 be b9 34 84 3f
       2.1452138 -0.21729577 -0.44860694 1.032859
0000b0 a6 d3 c7 3f 82 2a 04 3f c2 c0 6a 3e 62 ed f9 bd
       1.5611465 0.5162736 0.22925094 -0.1220348
0000c0 29 fe b6 3e 0a 90 aa 3f 3a 27 48 3f c2 a2 6d bf
       0.35740784 1.3325207 0.78184855 -0.92826474
0000d0 85 88 6d 3f 09 7e 4f 3e 71 a8 7e bf aa 51 15 bd
       0.9278644 0.20262922 -0.9947577 -0.036454834
0000e0 9c 53 fd 3e 84 8e 5a bf af 8f 35 40 20 9c c1 bd
       0.4947785 -0.8537371 2.8368948 -0.094536066
0000f0 30 bc 06 40 9e 5c c9 bd 75 51 61 be 19 64 4b 3f
       2.105236 -0.098321185 -0.2200373 0.7944961
000100 e1 06 c9 3f 6b 81 3c 3f 22 11 ef be bb 01 69 bf
       1.5705224 0.73634976 -0.4669276 -0.91018265
000110 c7 32 0f c0 52 94 47 be 78 d1 aa 3d 56 11 9c be
       -2.2374742 -0.19490173 0.08340734 -0.30481976
000120 ff c3 8e bd 7e fb 8a bf ac a8 ca 3b 05 cb 62 3f
       -0.06970977 -1.0857999 0.006184658 0.88591033
000130 33 27 2d bf 11 df 90 3f 12 e1 86 3f ff e6 6e bf
       -0.6763794 1.1318074 1.0537436 -0.9332122
000140 4f 26 68 3f b9 83 2c 3e 68 d9 2e 3f 6c aa ea be
       0.90683454 0.16847123 0.68300486 -0.45833147
000150 b3 4a eb 3f 7c c1 98 be 3b 42 e4 3f ec 30 99 bf
       1.8382171 -0.29835117 1.7832712 -1.1968055
000160 04 1d 43 3f 52 d4 b7 3e 0b 63 3e 3e 41 d9 8d 3c
       0.7621615 0.35904175 0.1859247 0.017315509
000170 eb 5a 15 3f 4e 30 65 bf d8 d0 ee 3e 02 0f da 3e
       0.58341855 -0.8952683 0.4664371 0.42589575
000180 3e a8 2e bf f1 e0 85 bf 7c bc 8e bd 19 e1 8f be
       -0.6822547 -1.0459272 -0.06969544 -0.28101423

w2 f4 [1, 100]
000000 37 e7 57 bd af 53 50 be 1f ea b5 bd 86 73 0e 3e
       -0.052710738 -0.20344423 -0.08882546 0.13911256
000010 3e c3 09 3e 73 90 7c 3b 1a 53 8a bd 47 a4 01 3d
       0.13453385 0.0038538247 -0.067541316 0.031650808
000020 e8 38 73 3d c8 c8 14 be 34 40 8b bd 9c 53 9c bd
       0.059380442 -0.14529717 -0.06799355 -0.07633135
000030 71 f6 ed bc c4 3e b0 bd 9e 28 ad 3d 94 d1 58 be
       -0.029048176 -0.086057216 0.08455013 -0.21173698
000040 e9 fc c1 bd 9f a0 d2 bd 95 7a ba bd c3 0a 5a be
       -0.09472067 -0.10284542 -0.09105412 -0.21293168
000050 17 5b e3 bd b4 43 c3 3c 5e 0b 36 be 03 57 a8 bd
       -0.111013584 0.023835994 -0.17777774 -0.08219721
000060 c1 b6 ae 3d 8e cd 29 be e3 7b 60 be 6c e0 60 3d
       0.08530951 -0.16582319 -0.21922259 0.054901525
000070 fc a6 b0 be 1a ed 10 3e 5e 15 9e bd 5f cc f7 bc
       -0.345024 0.14152947 -0.07718919 -0.030248819
000080 f4 39 bc bd 4f 3c 1c be 47 8d e2 3c 59 c0 7e bd
       -0.09190741 -0.15257381 0.027655257 -0.062195156
000090 ec 4c 0d 3e 36 09 86 bd 02 bf 1e bc fa 9f fd 3a
       0.13798875 -0.065447256 -0.0096890945 0.0019350045
0000a0 9c bf 30 bd 1b fd b1 bd f0 c7 0d be a5 0d 5c be
       -0.043151483 -0.08690854 -0.13845801 -0.2148958
0000b0 27 d6 76 bd a1 f5 47 be dd 1a 7e be 93 78 c6 bd
       -0.060262825 -0.19527294 -0.24814935 -0.096909665
0000c0 35 81 c9 bc 45 ff 0c be f2 4d 78 be 65 db 95 3d
       -0.024597744 -0.13769253 -0.24248484 0.07317237
0000d0 9b ca 76 3d 6f 0e bd 3c bc 8f 74 bb 92 64 04 be
       0.060251813 0.023078172 -0.0037317118 -0.1292899
0000e0 8f 9a a6 bd b0 3b 4f bd 77 88 8e be c3 5b 07 be
       -0.081349485 -0.05059403 -0.2783849 -0.13218598
0000f0 44 83 24 be ea b5 81 be 9e a5 01 be 38 35 5a be
       -0.16065699 -0.25334102 -0.12660834 -0.21309364
000100 e2 5b 58 bd 57 d4 0e bd 56 70 b9 bd dd 21 96 3d
       -0.052822 -0.03487047 -0.090546295 0.07330678
000110 6a 70 5c be f4 70 32 be 0f 9d 26 be c0 7f f9 3d
       -0.21527258 -0.174259 -0.1627085 0.121825695
000120 2f a7 56 bd 80 e6 95 bd bf 29 f6 bd 3b c3 e0 bc
       -0.052405532 -0.07319355 -0.12019681 -0.027436843
000130 4f 06 17 be 27 5e b4 bc 1e bb 8a be 60 45 c1 bc
       -0.147485 -0.022017552 -0.27095884 -0.02359265
000140 1a 35 0f 3d 82 c4 e1 3d c3 2d 76 be c8 6e 0d 3d
       0.03496275 0.11023809 -0.24040894 0.034529477
000150 42 06 92 be 32 fa 07 be d0 04 00 be a7 b8 1d be
       -0.285204 -0.13279036 -0.12501836 -0.1540247
000160 c5 00 21 be 5b 64 2b be 1a 61 e2 3d 4d b3 43 bd
       -0.1572295 -0.16737501 0.11053677 -0.047778416
000170 15 21 12 be 8e 47 fc bd b4 17 69 bd 94 10 21 be
       -0.14270432 -0.123183355 -0.05690737 -0.1572898
000180 5a 3d 11 be 19 27 91 bc 65 f7 fe 3d cb e6 fe bd
       -0.1418356 -0.017718839 0.124495305 -0.12446364

A f4 [100, 100]
000000 18 1c a1 3d 4d 93 47 3e 41 99 dc 3d ee ac 33 be
       0.078666866 0.19489785 0.10771418 -0.17546436
000010 a8 89 2f be fa 6c ff bd 66 0e 2b be 76 13 46 3d
       -0.17142355 -0.124719575 -0.16704711 0.048358403
000020 36 30 d5 bd ec a5 b5 3c 68 5f 6d 3c 4a 93 b2 bd
       -0.10409586 0.022173844 0.014488079 -0.087194994
000030 30 ad 04 be 7c c4 51 bd de 5e c9 bd fe 47 d7 bd
       -0.12956691 -0.051212773 -0.098325476 -0.10511778
000040 9c 0a d9 3d 1e 3d bf bd be 4c 03 3e 40 db 28 3d
       0.10597727 -0.09337829 0.12822244 0.041224718
000050 3e 5d 39 bd 74 26 25 3e 56 16 cd 3d f8 53 d1 bd
       -0.04525494 0.1612795 0.10014026 -0.10221094
000060 da 74 1b 3d f6 4f d6 bd 35 da e3 bd 64 2b 85 be
       0.037953235 -0.1046447 -0.11125604 -0.26009667
000070 98 63 33 be b4 d1 6c 3d 9c 46 8b 3d 80 a2 3c 3b
       -0.17518461 0.057817176 0.06800577 0.002878338
000080 18 db 3f be 36 6a 26 be c1 11 28 be 24 a6 30 be
       -0.18735921 -0.16251454 -0.16413023 -0.17250878
000090 ce ff 82 bd 56 bd 80 3c f5 e8 61 3e aa 08 00 be
       -0.06396447 0.015715282 0.22061522 -0.12503305
0000a0 89 c4 47 be ac dc df 3d 65 8d 00 3e 6c 72 9b 3d
       -0.19508566 0.10930762 0.12553938 0.075901836
0000b0 c4 3b 29 3e 4c 8c 4d be fa 97 c3 3d 58 7a 62 bc
       0.16526705 -0.2007305 0.095504716 -0.013823114
0000c0 78 a4 85 3e fc a3 74 bc 64 d8 3b 3d 04 58 04 3d
       0.26102042 -0.014931675 0.045860663 0.0323105
0000d0 3a 9d 2b bd bc 6e 20 3d 24 47 4a bd d9 3d 78 3d
       -0.04189799 0.039168105 -0.04938425 0.060605858
0000e0 23 58 24 bd de 34 16 bd 8e 13 df bd 5b df f3 3c
       -0.040123116 -0.03667151 -0.10892402 0.02976959
0000f0 38 08 55 3e cf 00 25 be d2 cb 48 be e8 22 e9 3d
       0.20803916 -0.1611359 -0.19609001 0.11383611
000100 60 30 38 bd 3c fb d6 3d 4c dd d1 bc dc a2 14 bc
       -0.04496801 0.10497138 -0.025618218 -0.009072032
000110 74 63 48 be 04 b1 08 be 71 c4 37 3e 69 29 8d be
       -0.19569188 -0.13348776 0.1794603 -0.27570656
000120 30 f1 19 3c 38 06 65 3d 1e 30 81 bd 16 ba b2 bd
       0.0093958825 0.055914134 -0.06308006 -0.08726899
000130 b6 df 98 bd 9b 21 78 bd 44 60 e9 bd cb 51 5e bd
       -0.074645445 -0.060578924 -0.11395314 -0.054277223
000140 b8 d5 56 be 57 f5 94 3d f0 3f 9d 3d c3 63 40 3e
       -0.20979965 0.07273357 0.07678211 0.18788056
000150 74 c9 92 3c 1e 8d 69 bd 07 a1 17 be 98 f6 df bc
       0.017918326 -0.057019345 -0.14807521 -0.027339265
000160 3e 9f a0 3c e1 78 b1 bd 04 b7 ab 3c 9a 71 32 3e
       0.019607183 -0.08665634 0.020961292 0.17426148
000170 10 bd 1e be e6 72 eb 3d 18 dd 87 3d 0e 5b d1 3d
       -0.15501809 0.114965245 0.06633967 0.102224454
000180 ae 45 5d bd 57 86 72 3e 78 37 39 be f6 34 15 3e
       -0.05402153 0.23684059 -0.18087566 0.14570984
000190 61 04 7b 3d de 28 f5 3d 8a 07 ea 3c 06 b7 e9 bd
       0.061283473 0.119706854 0.028568048 -0.11411862
0001a0 e3 05 d0 bd 07 11 33 bd 29 1c b1 bd 38 99 12 bd
       -0.10157373 -0.04371741 -0.08647949 -0.035790652
0001b0 59 f0 04 bd 2f 0a 11 3d 4e 3e 7f bd f4 ef c4 bd
       -0.032455776 0.035410102 -0.062315278 -0.0961608
0001c0 08 f3 d8 bd 2c 18 a2 bd 18 ce 5a bd 45 07 43 bd
       -0.105932295 -0.07914767 -0.053419203 -0.047614355
0001d0 70 f3 9d bc 21 63 66 bd 17 9c 10 3d fc 45 ab 3d
       -0.01928112 -0.05624688 0.03530511 0.08362958
0001e0 14 2a 5d bc 1a 44 06 3e 34 56 92 3d 2c 09 30 3d
       -0.013498802 0.13111916 0.07145348 0.042977497
0001f0 bd 5d 8e 3d d3 50 70 bd 69 71 a4 bd 05 89 41 be
       0.06951473 -0.05867083 -0.08029444 -0.18899925
000200 0e 5b ee bd 06 5f 1a 3d 50 31 f0 3d 7c ff 38 bc
       -0.11638461 0.037688278 0.117281556 -0.011291381
000210 5f 04 0b be 72 45 9d bd 98 76 db bd ee b9 e2 bd
       -0.13575886 -0.07679261 -0.10715979 -0.110706195
000220 7d 96 7b bd 44 96 3b 3d c2 12 d5 3d 3f 39 ec bd
       -0.061422814 0.0457976 0.104039684 -0.11534356
000230 7e 62 87 bd 41 74 e6 3d 74 d1 03 3c 82 70 c2 bc
       -0.06610583 0.112526424 0.008045543 -0.023735289
000240 2b 27 09 3e a1 ab 11 be 2b 9f ee 3d d6 e2 4c 3d
       0.13393848 -0.14225627 0.11651453 0.050021015
000250 47 f7 1b 3e 70 f6 16 3b 0e 33 9f bc 6a aa 95 bc
       0.15231048 0.0023035072 -0.019433524 -0.018269736
000260 40 5c ed ba a6 2e ca 3c 3a d9 8d bd cc 2f a6 3d
       -0.0018109158 0.024680447 -0.06926198 0.08114585
000270 ec fa 17 bd 88 6a d5 3b a3 60 bf bd 0c b8 9d 3c
       -0.037104532 0.0065129437 -0.09344604 0.0192528
000280 54 b9 d8 3d ee 74 02 be a3 32 de bd f9 f9 3f 3d
       0.105822235 -0.12739918 -0.10849502 0.046869252
000290 fb 1c 2b bd e5 ce 2f 3d 9b 3b ec 3c bc 3e 68 3c
       -0.041775685 0.04292192 0.028837016 0.014175113
0002a0 51 ce cd bd b9 26 60 bd 1b 7e f0 3d 45 15 37 be
       -0.10049117 -0.05472443 0.11742803 -0.17879207
0002b0 a0 4f 09 3c 63 9f 7e 3d ea 5d ea 3c d0 8c 20 3b
       0.0083808005 0.06216372 0.028609235 0.0024497993
0002c0 7f c5 df bd b1 9f 82 bd e3 0e 22 bd 04 14 cb bd
       -0.10926341 -0.06378115 -0.03956498 -0.09915927
0002d0 c8 aa cc bd 2a aa ca 3d e2 c5 a9 3d 59 5c 04 3e
       -0.099935114 0.098957375 0.08289696 0.12925853
0002e0 be 5b 9c 3c 99 a2 ed bc 2a c1 5f bd ec fd a7 bd
       0.019086715 -0.029008197 -0.054627575 -0.08202729
0002f0 00 d0 25 ba 6c 4b 86 bd 78 04 8c bc 6e fd e4 3d
       -0.0006325245 -0.06557354 -0.017091975 0.111811504
000300 9e 0a 39 bd 0f 18 53 3d 72 d8 ab 3d ac 85 75 3c
       -0.04517614 0.051536616 0.08390893 0.014985483
000310 fd 4f 88 bd d4 dd ff 3d 4b 0c 19 be fc 9d bb 3d
       -0.066558816 0.12493482 -0.14946096 0.091609925
000320 6b c7 67 3d 1f b6 1f 3e 8f 87 07 3e 8a 3b dd bd
       0.056586664 0.15596817 0.13235305 -0.10802372
000330 a5 76 2f be 3a 95 59 bd ed 12 ae bd 33 a9 8b 3d
       -0.17135103 -0.05312083 -0.084997036 0.068193816
000340 93 4c c4 bd 0e a0 8d 3d 18 9c 6c 3c 5c 6a 07 be
       -0.09584918 0.06915294 0.0144415125 -0.13224167
000350 04 cb 0f bd 40 e9 d3 3b 47 9f 17 be a3 9b ef bd
       -0.03510572 0.0064670146 -0.14806853 -0.11699607
000360 f9 2a cb 3d 08 54 47 bd a9 0f aa 3d 98 fc e5 3c
       0.09920306 -0.048664123 0.08303768 0.028074548
000370 18 18 cf bc 60 c0 f5 3d e4 0f f3 3d b9 8c c0 bd
       -0.025280043 0.11999583 0.11868265 -0.09401841
000380 1e d9 be 3c 38 52 b5 bc fa 23 8d bd 86 d1 0c be
       0.023296889 -0.022133932 -0.068916276 -0.13751802
000390 49 b2 2e be 60 07 9f bb c5 ab b7 3d 36 68 87 bc
       -0.17060198 -0.004853174 0.08968309 -0.016529184
0003a0 30 c6 e5 bd 53 b4 aa bd 5d 5d ad bd ca 08 11 be
       -0.11219442 -0.08335175 -0.08465073 -0.14163509
0003b0 a0 8e df bd 80 80 7e ba 62 10 56 3e 29 53 9c bd
       -0.109158754 -0.0009708479 0.20904687 -0.07633049
0003c0 e0 89 4a be aa 81 38 3d 5a 68 42 3d 43 58 8f 3d
       -0.19779158 0.045045532 0.0474628 0.069992565
0003d0 ff 33 cb 3d e5 28 30 be 56 2c a8 3d 8c 58 92 3c
       0.09922027 -0.172031 0.082115814 0.017864488
0003e0 18 32 76 3e 9c bc aa bd 5c 8e c4 3c 3e 43 fe bc
       0.24042547 -0.08336756 0.023993663 -0.031037923
0003f0 14 16 9b bd e0 c9 21 bb 88 26 14 bd 20 06 ea 3c
       -0.075725704 -0.0024686977 -0.03616956 0.028567374
